ch12/iris_classifier.pt (torch, 3600 bytes, 4 tensors)

weight f4 [16, 4]
0.4388338 -0.6443515 1.620894 1.2338101 -0.19661605 0.01794325 -1.9350783 -1.1731122
0.07127207 0.7763278 0.9924126 0.6022988 0.15815304 0.2709498 1.5633216 1.1334009
0.3715063 -1.1572524 2.233581 0.86625946 0.025283406 -0.17222464 1.7129391 0.84394914
0.652214 -1.6243584 2.804009 0.5054103 -0.26516157 0.6990789 -1.8499035 -0.98546636
0.092277475 0.3410762 -2.3918867 -1.2859571 0.1289711 1.3392093 -0.98634547 -0.2926329
0.50894725 -1.2892166 2.1557608 0.80172175 -0.13013573 0.070794486 -2.0760128 -1.1772659
-0.14893597 0.07708756 -2.2752435 -1.4903133 0.41123688 -1.3311019 2.2003045 0.8473267
0.8196539 -1.9933149 2.8265069 0.2117037 0.29321992 -1.2512984 2.4584394 0.7363968
00000000: d3ae e03e 38f4 24bf 7479 cf3f 7ded 9d3f
00000010: b855 49be b9fd 923c a5b0 f7bf 8a28 96bf
00000020: 17f7 913d 6bbd 463f c10e 7e3f 4130 1a3f
00000030: dff2 213e efb9 8a3e ec1a c83f 4813 913f
00000040: 1336 be3e d920 94bf fef2 0e40 2ec3 5d3f
00000050: 251f cf3c a85b 30be 9741 db3f 0d0d 583f
00000060: 7ff7 263f faea cfbf e274 3340 9262 013f
00000070: 42c3 87be d6f6 323f a3c9 ecbf 8647 7cbf
00000080: f9fb bc3d 8aa1 ae3e ac14 19c0 3e9a a4bf
00000090: 0011 043e 366b ab3f 2381 7cbf fbd3 95be
000000a0: 5e4a 023f 0d05 a5bf fcf7 0940 a33d 4d3f
000000b0: 4d42 05be b3fc 903d 65dd 04c0 a6b0 96bf
000000c0: ac82 18be 15e0 9d3d 979d 11c0 96c2 bebf
000000d0: a48d d23e 8c61 aabf cad1 0c40 67ea 583f
000000e0: d7d4 513f f124 ffbf 7de5 3440 dbc8 583e
000000f0: ec20 963e 8c2a a0bf 1257 1d40 8084 3c3f

bias f4 [16]
-0.356365 0.4175483 -0.01976625 -0.14296821 -0.23746988 -0.3853419 0.62587494 0.4508959
0.27639368 -0.046362635 -0.020410202 0.47615024 0.41865698 0.39613003 -0.0006813835 0.6643844
00000000: 7975 b6be e4c8 d53e d5ec a1bc 4266 12be
00000010: 4e2b 73be 894b c5be 5739 203f d4db e63e
00000020: 7983 8d3e bfe6 3dbd 4c33 a7bc f7c9 f33e
00000030: 355a d63e 8ed1 ca3e df9e 32ba 1915 2a3f

weight f4 [3, 16]
-1.2376162 0.87822074 -0.15775625 -0.57586426 -1.4718279 -0.78846294 -1.6101406 1.4715992
0.8786573 0.6900611 -1.2088531 0.78571975 0.91522664 -1.0943776 -1.5999311 -1.7401459
-0.19254388 0.26511905 -0.3717031 -0.4500552 0.099688254 -0.39529833 0.18176354 0.097792424
0.14626464 -0.2828241 0.19954748 0.2725259 0.55168074 -0.024596192 0.15366374 0.086911894
0.8870579 -1.3593082 0.3472942 0.7583981 0.8522077 0.7108473 0.22885408 -1.4213674
-1.4425784 -0.19464006 0.7453016 -1.3709002 -1.1666541 0.30910176 0.14462377 0.54616183
00000000: 356a 9ebf 13d3 603f db8a 21be d76b 13bf
00000010: db64 bcbf b5d8 49bf 1619 cebf 5d5d bc3f
00000020: afef 603f d8a7 303f b3bb 9abf ee24 493f
00000030: 4b4c 6a3f 9114 8cbf 8bca ccbf 1abd debf
00000040: 392a 45be afbd 873e de4f bebe a36d e6be
00000050: 5b29 cc3d 8b64 cabe 3920 3a3e 6547 c83d
00000060: 66c6 153e 52ce 90be 2d56 4c3e 8488 8b3e
00000070: f33a 0d3f f47d c9bc 075a 1d3e ddfe b13d
00000080: 3a16 633f d0fd adbf 8cd0 b13e 6126 423f
00000090: 492a 5a3f 17fa 353f b958 6a3e 5eef b5bf
000000a0: 69a6 b8bf b94f 47be 16cc 3e3f a879 afbf
000000b0: ec54 95bf 9642 9e3e 4118 143e 43d1 0b3f

bias f4 [3]
0.4005929 0.12573683 -0.20132193
00000000: 831a cd3e 28c1 003e 5627 4ebe
